code/transformer_checkpoint.pth (torch, 636234 bytes, 42 tensors)

input_projection.weight f4 [64, 8]
-0.284321 -0.14207943 0.33500302 -0.13197245 -0.22186369 0.3099765 -0.06923957 -0.29456872
-0.24489659 0.20532453 0.2573424 0.31355745 0.21435253 0.14844178 0.03474185 0.2626751
-0.3382751 -0.026667103 -0.24508983 -0.21636727 -0.29735816 0.34343913 0.263425 -0.12918091
0.094190285 -0.037326097 0.2559414 -0.18407464 0.14177473 -0.14955385 -0.19401433 -0.2397343
-0.31761816 -0.35528424 -0.015495569 0.26356745 0.19604146 -0.21782969 0.10661286 0.30190715
-0.3298155 0.12727776 0.2952259 -0.026728306 0.124426395 -0.061068457 -0.21466151 0.19311398
-0.116756454 -0.0936969 0.07814439 -0.058250215 0.09509861 0.07377836 0.06315341 0.24861057
0.09221788 0.024646696 -0.2657422 -0.021905765 0.20142348 -0.3143906 0.28617683 0.13081834
0.2596927 0.20979404 0.0016301295 -0.18206383 0.17303622 0.26745328 0.07082781 -0.18096642
-0.2505153 0.21281035 -0.0034837546 0.14465335 -0.16511828 0.17391522 0.13221315 -0.12770024
0.20885503 -0.31534022 -0.3010269 -0.23587178 -0.21011454 -0.07354378 0.013831441 0.14697498
0.03884691 0.09007996 -0.2369669 -0.11445941 0.28697273 -0.04630095 -0.12519264 0.1626785
-0.18464698 -0.34029096 -0.059733227 -0.19015424 0.10701477 -0.1835206 0.33262837 0.008873282
0.06416332 0.3453625 -0.06732939 -0.027683042 0.11732396 0.28438133 0.040295962 0.24390972
0.16729033 -0.07921213 -0.03589403 0.26941234 -0.3384948 -0.090224 0.16522549 0.0356987
0.038054787 0.03541899 -0.11858406 0.2586179 -0.21344347 0.28656277 -0.03242208 0.030921625
0.26288196 -0.17132808 -0.25768283 -0.07830888 0.26527685 -0.05069258 -0.13073465 -0.23513278
-0.0213585 -0.24870774 -0.05940985 -0.07119235 0.14557295 -0.2817701 0.16647513 -0.25629863
-0.124113195 -0.22584468 -0.02820515 0.11610745 0.22604723 -0.09977408 -0.25248098 -0.11055503
0.28452423 0.017055558 -0.17685658 -0.33012185 0.09154843 0.096055724 0.16129504 0.14192812
-0.25572017 0.00217036 0.06264962 0.08812159 0.2591516 -0.25112605 -0.04745529 -0.17426221
0.046740837 -0.034839388 -0.21356913 0.12064987 0.08579623 -0.22237095 -0.082616575 0.2845908
0.27700153 -0.18711112 0.07994408 -0.11087923 0.32375664 -0.24279422 0.18326294 -0.29629394
-0.06594903 0.22625309 0.027181933 -0.20068666 0.045218766 -0.0699572 0.17390354 0.10638737
-0.14214689 0.15820634 -0.07690802 0.34085473 0.07859691 -0.21210393 -0.30499315 0.06297161
0.05770867 -0.3007101 0.2585024 0.089682564 0.032701135 -0.1588865 -0.10678969 -0.25136152
0.17518684 0.24363351 0.22939014 -0.30066106 0.17282146 0.042529274 0.022061633 -0.16922392
-0.22742517 0.18639378 0.21931762 0.170443 -0.299493 -0.3279604 -0.22865601 -0.015166035
-0.29555798 -0.2231868 0.3242515 -0.00695045 0.24040684 0.06876904 -0.09488545 0.2602702
-0.27745816 0.099969044 -0.29891166 0.34345576 0.328005 0.2283155 0.22705686 -0.19990344
-0.16295998 -0.28973627 -0.27571368 -0.13319115 -0.19125198 0.14165503 0.21950905 0.3371849
0.19848652 0.1697316 0.12045572 -0.22221602 -0.17351964 -0.15495016 0.16586234 0.14112903
00000000: 8692 91be 457d 11be 8485 ab3e c923 07be
00000010: 3c30 63be 3db5 9e3e 7acd 8dbd b6d1 96be
00000020: 2cc6 7abe 9840 523e 62c2 833e 9a8a a03e
00000030: 3b7f 5b3e 1f01 183e 784d 0e3d 5a7d 863e
00000040: 6532 adbe f874 dabc d4f8 7abe 628f 5dbe
00000050: 543f 98be 41d7 af3e a4df 863e 0048 04be
00000060: d6e6 c03d 40e3 18bd c00a 833e 107e 3cbe
00000070: 652d 113e a524 19be b1ab 46be e97c 75be
00000080: d99e a2be d1e7 b5be 21e1 7dbc 50f2 863e
00000090: 18bf 483e bf0e 5fbe d857 da3d 9393 9a3e
000000a0: 94dd a8be 1a55 023e d927 973e 52f5 dabc
000000b0: 44d3 fe3d eb22 7abd 3ad0 5bbe acbf 453e
000000c0: 021e efbd 29e4 bfbd 2a0a a03d c797 6ebd
000000d0: 0fc3 c23d 1c19 973d 9356 813d c593 7e3e
000000e0: badc bc3d dee7 c93c 5d0f 88be b873 b3bc
000000f0: f541 4e3e cef7 a0be c585 923e 3ef5 053e
00000100: 71f6 843e 40d4 563e 12aa d53a f16e 3abe
00000110: 6830 313e a3ef 883e 2c0e 913d 434f 39be
00000120: 8b43 80be f5ea 593e b44f 64bb 0220 143e
00000130: c414 29be d516 323e e262 073e dac3 02be
00000140: 18de 553e 4674 a1be 3320 9abe 5f88 71be
00000150: 4428 57be 1f9e 96bd 459d 623c 9c80 163e
00000160: f01d 1f3d d87b b83d 73a7 72be b269 eabd
00000170: 17ee 923e 11a6 3dbd 8032 00be 3195 263e
00000180: 1914 3dbe 9e3a aebe d4aa 74bd cbb7 42be
00000190: 8f2a db3d d3ec 3bbe 444e aa3e 3e61 113c
000001a0: 0f68 833d 5bd3 b03e fee3 89bd 8cc7 e2bc
000001b0: 8b47 f03d 6e9a 913e 610d 253d 78c3 793e
000001c0: 284e 2b3e f839 a2bd 9e05 13bd 6af0 893e
000001d0: 314f adbe 5cc7 b8bd df30 293e cd38 123d
000001e0: 56df 1b3d 8113 113d 33dc f2bd 9169 843e
000001f0: ed90 5abe 5bb8 923e 04cd 04bd 594f fd3c
00000200: 7798 863e a170 2fbe 01ef 83be 6860 a0bd
00000210: 5ed2 873e 06a3 4fbd 4edf 05be a6c6 70be
00000220: 05f8 aebc 3ead 7ebe be57 73bd 4bcd 91bd
00000230: 1311 153e 2c44 90be 7578 2a3e 9339 83be
00000240: 0f2f febd d443 67be 7d0e e7bc bec9 ed3d
00000250: ed78 673e 5a56 ccbd 3045 81be ad6a e2bd
00000260: 29ad 913e 19b8 8b3c e419 35be bb05 a9be
00000270: be7d bb3d ddb8 c43d 872a 253e 9b55 113e
00000280: c1ed 82be 993c 0e3b 724e 803d 1879 b43d
00000290: 85af 843e 9893 80be 7a60 42bd cb71 32be
000002a0: 5273 3f3d bfb3 0ebd deb1 5abe 4717 f73d
000002b0: efb5 af3d 36b5 63be e132 a9bd e3b5 913e
000002c0: 25d3 8d3e 0f9a 3fbe b9b9 a33d a614 e3bd
000002d0: 6ec3 a53e 0c9f 78be 48a9 3b3e d7b3 97be
000002e0: 4910 87bd e4ae 673e a5ac de3c ce80 4dbe
000002f0: 5037 393d b845 8fbd c513 323e 9fe1 d93d
00000300: f48e 11be d800 223e f481 9dbd 8384 ae3e
00000310: 6bf7 a03d c631 59be 1028 9cbe 42f7 803d
00000320: ed5f 6c3d adf6 99be 6d5a 843e 7eab b73d
00000330: a0f1 053d 25b3 22be 8eb4 dabd 75b2 80be
00000340: 2e64 333e 107b 793e 40e5 6a3e 3ff0 99be
00000350: 1cf8 303e 2d33 2e3d 99ba b43c 0949 2dbe
00000360: 25e2 68be 03de 3e3e cc94 603e 9c88 2e3e
00000370: 2657 99be 6dea a7be cd24 6abe f67a 78bc
00000380: 6053 97be 158b 64be 4b04 a63e 9ac0 e3bb
00000390: 362d 763e c8d6 8c3d 4e53 c2bd 2342 853e
000003a0: ff0e 8ebe 92bc cc3d f30a 99be 6fd9 af3e
000003b0: 45f0 a73e 8acb 693e 9881 683e 7db3 4cbe
000003c0: fbde 26be 5058 94be 582a 8dbe 4363 08be
000003d0: 8fd7 43be 040e 113e fbc6 603e 80a3 ac3e
000003e0: 0d40 4b3e 1fce 2d3e 7db1 f63d 998c 63be
000003f0: 22af 31be 41ab 1ebe d1d7 293e 2184 103e

input_projection.bias f4 [64]
-0.19774236 -0.23131184 0.034047157 0.29415107 -0.20161949 0.33295554 -0.039708424 0.122173384
0.17409427 0.22882651 0.19084586 -0.18837334 0.11193224 0.32060647 -0.14485449 0.23776226
0.2616545 0.1077237 0.24815795 -0.29136372 0.28380066 0.02502268 0.13835464 0.27341637
0.0155359795 -0.28948298 -0.2801924 -0.23768012 0.2328524 0.21687588 0.2889001 -0.054508414
-0.02023528 -0.021494152 -0.35804018 -0.11361359 0.18481115 0.1480404 0.33980665 -0.26165092
-0.07028922 -0.18639402 0.091783 -0.04212367 0.3594416 -0.05178167 0.27035284 0.2358441
0.3350072 0.29839313 0.108081914 -0.2832699 -0.036047924 -0.17589462 -0.25427935 0.24924986
0.33835238 -0.05119579 -0.34951168 -0.2506031 0.23252313 0.15054315 0.36353028 -0.08980249
00000000: f97c 4abe 03dd 6cbe 0875 0b3d f89a 963e
00000010: 5775 4ebe 2679 aa3e 4da5 22bd 0a36 fa3d
00000020: c545 323e 7f51 6a3e 196d 433e f1e4 40be
00000030: bb3c e53d 8826 a43e bc54 14be f377 733e
00000040: 94f7 853e 3e9e dc3d 1e1d 7e3e a02d 95be
00000050: 524e 913e 5dfc cc3c d7ac 0d3e 3bfd 8b3e
00000060: 9f8a 7e3c 1d37 94be 6175 8fbe 6b62 73be
00000070: dc70 6e3e b614 5e3e b7ea 933e 3744 5fbd
00000080: 75c4 a5bc 8114 b0bc 0b51 b7be 3eae e8bd
00000090: 223f 3d3e e797 173e 23fb ad3e 1cf7 85be
000000a0: cbf3 8fbd 13de 3ebe baf8 bb3d df89 2cbd
000000b0: bb08 b83e 0419 54bd b06b 8a3e 1e81 713e
000000c0: 1086 ab3e fcc6 983e 0d5a dd3d c108 91be
000000d0: fda6 13bd b81d 34be e730 82be 5b3b 7f3e
000000e0: 863c ad3e adb2 51bd 32f3 b2be 0d4f 80be
000000f0: 8b1a 6e3e fc27 1a3e a420 ba3e 5eea b7bd

downsample.0.weight f4 [64]
0.9926454 0.9931454 0.9912308 1.008441 1.0064487 1.0066615 1.0070293 0.98981535
0.9920163 0.99088246 0.99312174 1.0031323 0.99084663 1.0057495 0.98967445 0.988965
1.0085055 1.00085 1.0122788 0.9886381 0.99260503 1.0023242 0.99367523 0.9929497
0.99823564 1.0082707 1.0070521 0.9904331 0.99361634 0.99191934 1.0046369 1.005756
0.9921189 0.991422 0.9911674 0.99184924 0.9885161 0.9891042 1.0072724 0.9899126
0.99195284 1.0006273 0.9907742 0.992115 1.0096602 0.99194753 1.0071753 0.998498
0.99252975 1.0075436 0.9930234 0.98937327 1.0084909 0.9918012 0.99652636 0.9946071
1.010628 0.99005073 1.0087817 1.0086118 1.0079556 1.0046566 0.99395615 1.0060195
00000000: 021e 7e3f c73e 7e3f 4dc1 7d3f 9814 813f
00000010: 50d3 803f 49da 803f 56e6 803f 8a64 7d3f
00000020: c8f4 7d3f 79aa 7d3f 3a3d 7e3f a466 803f
00000030: 20a8 7d3f 66bc 803f 4e5b 7d3f cf2c 7d3f
00000040: b516 813f da1b 803f 5a92 813f 6317 7d3f
00000050: 5d1b 7e3f 294c 803f 8061 7e3f f431 7e3f
00000060: 5f8c 7f3f 040f 813f 15e7 803f 068d 7d3f
00000070: a45d 7e3f 6dee 7d3f f197 803f 9dbc 803f
00000080: 81fb 7d3f d5cd 7d3f 26bd 7d3f d5e9 7d3f
00000090: 640f 7d3f ef35 7d3f 4dee 803f ea6a 7d3f
000000a0: 9ff0 7d3f 8e14 803f 61a3 7d3f 40fb 7d3f
000000b0: 8c3c 813f 46f0 7d3f 1feb 803f 919d 7f3f
000000c0: 6e16 7e3f 30f7 803f c836 7e3f 9147 7d3f
000000d0: 3b16 813f afe6 7d3f 5a1c 7f3f 929e 7e3f
000000e0: 425c 813f f773 7d3f c21f 813f 311a 813f
000000f0: b004 813f 9698 803f e973 7e3f 3fc5 803f

downsample.0.bias f4 [64]
-0.0081508085 0.0066812346 -0.008146881 0.008696662 -0.008035596 0.0076320414 -0.008489355 -0.00468772
-0.007981924 -0.00877742 0.009234528 -0.006272037 -0.008749454 0.008684718 0.008629662 0.009236483
0.008765248 -0.0071714194 0.009469329 0.005329834 0.0010957533 -0.008191854 -0.0058373353 -0.0018489318
-0.009874362 -0.008913897 -0.010822874 -0.011775723 0.012175282 -0.0071830843 -0.0024426107 -0.009746489
-0.008922362 -0.011095821 -0.008624746 0.007318352 0.0084222 0.013961395 0.008032109 -0.00691398
0.0070786094 -0.007913165 0.0091068335 0.008562406 0.008378933 -0.0071721184 0.008744906 0.008244297
0.008044861 0.007972501 -0.0075926734 -0.008136401 -0.008667432 0.008386154 -0.0040480583 0.0076675555
0.009577594 0.008365719 -0.008671128 -0.00974592 0.00908183 -0.0061973706 0.013386591 -0.007448795
00000000: f88a 05bc 42ee da3b 7f7a 05bc 727c 0e3c
00000010: bca7 03bc 3416 fa3b f016 0bbc 729b 99bb
00000020: 9ec6 02bc 2bcf 0fbc 6b4c 173c a985 cdbb
00000030: df59 0fbc 594a 0e3c 6d63 0d3c 9e54 173c
00000040: 1d9c 0f3c 3afe eabb 3f25 1b3c e3a5 ae3b
00000050: 619f 8f3a 2037 06bc 1e47 bfbb db57 f2ba
00000060: 13c8 21bc 980b 12bc 6c52 31bc f6ee 40bc
00000070: d67a 473c 1460 ebbb 3514 20bb bdaf 1fbc
00000080: 192f 12bc 3fcb 35bc cf4e 0dbc c9ce ef3b
00000090: 44fd 093c 56be 643c 1b99 033c ab8e e2bb
000000a0: aef3 e73b 38a6 01bc d434 153c 5549 0c3c
000000b0: cb47 093c 1704 ebbb cb46 0f3c 1613 073c
000000c0: 98ce 033c 189f 023c f6cb f8bb 8a4e 05bc
000000d0: d801 0ebc 1466 093c 93a5 84bb 1e40 fb3b
000000e0: 57eb 1c3c 5e10 093c 5911 0ebc 5aad 1fbc
000000f0: f5cb 143c 5013 cbbb 6f53 5b3c 0515 f4bb

downsample.1.weight f4 [64, 64]
0.015230852 0.014050751 0.0016699579 -0.12546746 0.108863674 0.024439024 0.107093014 0.05310909
0.0866492 -0.050142 0.060319487 0.050439056 -0.10250941 -0.062595256 -0.10917369 0.03215603
0.05838295 0.0058980538 -0.07670456 -0.06559783 -0.0018294719 -0.0063529043 -0.02923796 0.07380795
-0.05753971 -0.11206604 0.003393117 -0.05229753 0.095331594 -0.07807869 -0.026197199 -0.09847645
0.081386246 -0.03372256 0.051724914 -0.027880775 -0.014694649 -0.061216533 0.11368702 0.005402565
-0.04775643 0.054650962 -0.0506542 0.04863304 -0.11197281 -0.037411362 0.054939948 -0.12848176
0.07281796 0.060698383 0.063859425 0.1032344 0.11505855 -0.031408433 0.0382504 0.100295626
0.044624757 -0.06239038 -0.011031412 -0.06442623 0.016925164 0.034115154 -0.06556339 0.055745963
-0.031131232 -0.026395807 -0.11627729 0.03461637 -0.023755468 -0.03157159 -0.08736959 0.022346433
0.10345272 0.015151562 -0.0007488003 -0.07266884 0.08524638 -0.11462572 -0.014521578 -0.09163581
-0.1066091 -0.101328656 0.08460229 0.07514629 -0.12948295 0.042705294 0.11720829 0.05487695
-0.1125856 -0.042171728 0.078073494 -0.107023366 -0.02692096 0.10107732 0.09124429 -0.077595964
0.103526294 0.12573138 0.034372773 -0.11451887 -0.0647179 -0.008070567 -0.011964788 -0.099828795
-0.07829763 -0.0475297 -0.075774156 -0.08268401 -0.07769404 -0.07634869 -0.094344094 -0.025414307
-0.09301857 0.07523269 -0.033391465 -0.064393796 0.096896596 0.0074252156 0.034321867 -0.014534316
-0.025265021 0.05380155 -0.06844592 -0.03882739 0.030486438 0.110608354 -0.013796313 0.02044642
0.10894642 -0.03554941 -0.045142647 0.11945722 -0.1188636 0.13335325 0.07335432 0.027284225
-0.00060272997 -0.032214426 0.0060398052 0.0021668854 0.02999942 0.045244783 -0.07146226 0.10979823
0.060576305 0.029753158 0.045941696 -0.06950712 -0.0048466083 0.011034383 0.108432546 0.11823928
-0.06480551 -0.029312598 -0.07071515 -0.03055028 -0.111312196 0.014244738 0.1233846 0.010060969
-0.05029618 0.040493533 -0.025455615 -0.08539223 0.025690207 -0.07775098 0.07459558 0.028735194
-0.03503066 -0.006304475 -0.010992506 0.099708565 0.029777652 0.061199766 0.1064579 -0.08919033
0.065464206 -0.10231604 -0.04103532 -0.10736471 -0.08002246 0.0829814 0.09440836 -0.08720496
0.080391265 0.07157042 -0.020274388 -0.055256777 0.019037204 0.050470438 -0.038745694 0.10923076
-0.110731006 0.08754954 0.0788061 -0.041629627 -0.0018881076 -0.101543345 -0.10110189 0.009634004
-0.0742826 -0.09617738 0.036308587 -0.10569096 0.083284095 0.054553438 0.013379166 0.071588516
-0.07248602 -0.08576973 -0.06238645 -0.11098438 -0.052527927 -0.042996813 0.010793182 0.10999436
-0.049216427 0.12225471 0.028899437 0.0044665406 0.09963051 0.032296296 -0.12492139 0.055258825
0.05429553 0.0651379 0.13020033 0.11314563 -0.05192674 -0.026568808 -0.049384516 0.06496613
0.04428268 -0.08112491 0.0857685 -0.07092898 0.11520323 -0.11535209 -0.0850663 0.061720796
-0.001526025 -0.02133227 0.04394944 -0.01403106 0.058163986 0.08500992 -0.028122662 0.0893663
0.011765588 0.030979026 0.1205218 -0.05610122 -0.07217829 0.019892847 -0.06835611 0.10060611
00000000: d38a 793c 1f35 663c 7de2 da3a 8b7a 00be
00000010: ebf3 de3d 5934 c83c 9553 db3d eb88 593d
00000020: 2375 b13d b361 4dbd 9111 773d 2f99 4e3d
00000030: 74f0 d1bd f131 80bd 7596 dfbd 0bb6 033d
00000040: f622 6f3d 7644 c13b 4817 9dbd 2858 86bd
00000050: e4ca efba 062c d0bb 7284 efbc 9f28 973d
00000060: c2ae 6bbd e182 e5bd 0f5f 5e3b ef35 56bd
00000070: 363d c33d b8e7 9fbd 829b d6bc 05ae c9bd
00000080: d5ad a63d ab20 0abd 81dd 533d 3966 e4bc
00000090: d3c1 70bc 30be 7abd bed4 e83d 0008 b13b
000000a0: 3f9c 43bd b0d9 5f3d c77a 4fbd 7033 473d
000000b0: 0052 e5bd a83c 19bd b608 613d b990 03be
000000c0: 9521 953d de9e 783d bbc8 823d 8f6c d33d
000000d0: d1a3 eb3d 21a6 00bd 74ac 1c3d cb67 cd3d
000000e0: 73c8 363d 0e8d 7fbd 18bd 34bc e6f1 83bd
000000f0: a4a6 8a3c 55bc 0b3d 1946 86bd e155 643d
00000100: ed06 ffbc 053c d8bc ca22 eebd e5c9 0d3d
00000110: d49a c2bc 3651 01bd d4ee b2bd de0f b73c
00000120: 05df d33d 423e 783c 234b 44ba 67d3 94bd
00000130: a795 ae3d e4c0 eabd eaeb 6dbc 8eab bbbd
00000140: df55 dabd 6685 cfbd f743 ad3d 4ce6 993d
00000150: 2e97 04be bfeb 2e3d e60a f03d a7c6 603d
00000160: 4793 e6bd 43bc 2cbd ffe4 9f3d 112f dbbd
00000170: 5889 dcbc a001 cf3d 49de ba3d a2ea 9ebd
00000180: 9805 d43d babf 003e 77ca 0c3d df88 eabd
00000190: d18a 84bd 693a 04bc f507 44bc 0a73 ccbd
000001a0: 825a a0bd 81ae 42bd 7b2f 9bbd 3c56 a9bd
000001b0: 0e1e 9fbd b45c 9cbd 7a37 c1bd aa31 d0bc
000001c0: 8580 bebd 9913 9a3d 7dc5 08bd e5e0 83bd
000001d0: b971 c63d 394f f33b 1695 0c3d 5721 6ebc
000001e0: 97f8 cebc 045f 5c3d 602d 8cbd 7809 1fbd
000001f0: b2be f93c a286 e23d ee09 62bc 407f a73c
00000200: 4d1f df3d 429c 11bd 7fe7 38bd fda5 f43d
00000210: c26e f3bd c18d 083e ca3a 963d 2b83 df3c
00000220: 8600 1eba 46f3 03bd 8fe9 c53b 4e02 0e3b
00000230: 58c1 f53c 9852 393d ce5a 92bd e5dd e03d
00000240: dc1e 783d e5bc f33c 5c2d 3c3d c059 8ebd
00000250: 4cd0 9ebb 8fc9 343c e211 de3d 7027 f23d
00000260: c0b8 84bd f920 f0bc 1bd3 90bd 9544 fabc
00000270: a6f7 e3bd c362 693c 11b1 fc3d c3d6 243c
00000280: 5e03 4ebd 8cdc 253d 4b88 d0bc 1fe2 aebd
00000290: 4574 d23c e83b 9fbd 91c5 983d 1266 eb3c
000002a0: 4f7c 0fbd c595 cebb e919 34bc 0134 cc3d
000002b0: 43f0 f33c 9bac 7a3d 9906 da3d 6ba9 b6bd
000002c0: 1912 863d 128b d1bd a714 28bd 07e2 dbbd
000002d0: d1e2 a3bd 27f2 a93d 2c59 c13d 8498 b2bd
000002e0: 2da4 a43d 8393 923d 7916 a6bc ee54 62bd
000002f0: e9f3 9b3c 17ba 4e3d ceb3 1ebd 60b4 df3d
00000300: f0c6 e2bd 2c4d b33d 1865 a13d d483 2abd
00000310: 617a f7ba f5f5 cfbd 820e cfbd f1d7 1d3c
00000320: 7a21 98bd a5f8 c4bd 50b8 143d 8174 d8bd
00000330: da90 aa3d 6d73 5f3d 4a34 5b3c 009d 923d
00000340: 8d73 94bd 0aa8 afbd ef88 7fbd c74b e3bd
00000350: 8627 57bd 6d1d 30bd e3d5 303c b944 e13d
00000360: 2a97 49bd ad60 fa3d 83be ec3c 0f5c 923b
00000370: 150b cc3d 1f49 043d c9d6 ffbd 1457 623d
00000380: fd64 5e3d 0567 853d 3c53 053e e5b8 e73d
00000390: 22b1 54bd d4a6 d9bc 6b47 4abd f60c 853d
000003a0: c161 353d d124 a6bd 65a7 af3d 3743 91bd
000003b0: acef eb3d b73d ecbd 3e37 aebd f2ce 7c3d
000003c0: e704 c8ba 03c1 aebc 5404 343d 88e2 65bc
000003d0: 5c3d 6e3d ae19 ae3d 7f61 e6bc ae05 b73d
000003e0: 74c4 403c bac7 fd3c 22d4 f63d 65ca 65bd
000003f0: 36d2 93bd 53f6 a23c 4afe 8bbd 940a ce3d

downsample.1.bias f4 [64]
-0.049324494 0.09629118 0.0011080203 -0.07698526 0.10078113 0.03219741 -0.12454804 -0.08496594
0.09644989 0.07303042 0.0036318775 0.005365582 -0.04890131 -0.038237147 -0.05114781 -0.07859938
-0.06568677 0.10699357 -0.0044207075 0.024620052 0.018136125 -0.07037313 -0.03863279 0.12814106
0.11847055 -0.09225558 0.074540175 -0.10472763 -0.10009195 -0.034883145 -0.0777868 0.07631957
0.113031186 0.058384646 -0.12084726 -0.037028175 0.08415972 0.029565036 -0.09786435 -0.11129227
0.00123389 -0.012161978 -0.11172234 0.10025354 -0.12981522 0.025983708 -0.0071825488 0.08513232
0.023870409 0.11221757 0.05022431 0.08584033 -0.0618927 0.05424839 0.10868518 0.09003676
0.050022166 -0.117953986 -0.1278324 0.019980615 0.0045731035 -0.045532625 0.124240614 -0.013501014
00000000: 7b08 4abd 4f34 c53d fe3a 913a 73aa 9dbd
00000010: 5666 ce3d 6ee1 033d 0b13 ffbd 9f02 aebd
00000020: 8587 c53d f990 953d cb04 6e3b c4d1 af3b
00000030: bd4c 48bd 8e9e 1cbd 5e80 51bd b6f8 a0bd
00000040: c986 86bd 721f db3d 95db 90bb feaf c93c
00000050: 3692 943c ca1f 90bd 6b3d 1ebd 6937 033e
00000060: b0a0 f23d 7ef0 bcbd 85a8 983d 717b d6bd
00000070: 02fd ccbd a1e1 0ebd b04e 9fbd 6f4d 9c3d
00000080: e57c e73d bd24 6f3d c57e f7bd dbaa 17bd
00000090: ee5b ac3d 6032 f23c 1b6d c8bd 34ed e3bd
000000a0: 7aba a13a 0843 47bc afce e4bd ba51 cd3d
000000b0: 48ee 04be c9db d43c 965b ebbb db59 ae3d
000000c0: e08b c33c 53d2 e53d 02b8 4d3d 0ecd af3d
000000d0: 3383 7dbd 8f33 5e3d 5696 de3d 3165 b83d
000000e0: 0be4 4c3d dc91 f1bd 7fe6 02be 63ae a33c
000000f0: f9d9 953b 6b80 3abd dd71 fe3d 5b33 5dbc

transformer_encoder.layers.0.self_attn.in_proj_weight f4 [192, 64]
-0.1256133 -0.050633688 0.11274914 0.0639096 -0.07335729 0.020837845 0.05132383 0.121703565
-0.08859752 0.14458518 -0.12915814 -0.013467534 0.09639371 0.00013601095 -0.13638787 -0.05729382
0.039850924 0.11506037 -0.019424973 -0.08123009 -0.008036432 -0.121583015 -0.015054156 0.13672295
0.10734684 -0.004320248 -0.011002802 -0.15165396 0.02251874 0.0018304477 0.12985104 -0.04932036
0.08405907 -0.08663821 -0.08933627 0.0056807185 0.05820556 -0.08747251 -0.0047671157 -0.040308625
0.14337227 0.00806671 0.14660491 -0.013657283 -0.008634862 0.14209665 -0.13837726 -0.03543054
0.14644505 -0.070299394 -0.062472247 0.0474388 -0.11430841 0.089831576 -0.10835261 0.12002109
0.08072323 -0.05945953 -0.15277651 -0.012600969 0.10056418 -0.0839867 0.097691536 -0.028626967
0.038854662 0.10070988 0.11297337 0.054628454 0.08545348 0.119830325 -0.13121353 0.09808054
-0.079363324 -0.092816174 -0.1406985 0.10636157 -0.12037179 -0.01160303 0.06971421 -0.027934074
-0.05206805 -0.08100776 0.10482629 -0.0987426 -0.12870799 0.064889796 0.03313428 -0.03246258
-0.07816128 -0.11441635 -0.09879963 -0.102836914 -0.0045277304 0.13794169 -0.025269767 -0.08543099
0.13542771 0.058332138 0.10702034 -0.02677284 -0.01762275 -0.044622842 0.017577872 0.057862844
0.026174609 -0.105223395 0.021143546 0.0068617477 -0.0457061 0.119101934 0.017278308 -0.053846538
-0.126187 0.069348425 -0.11625263 -0.07955762 -0.13492307 -0.1305341 -0.14436895 -0.10281258
-0.08922659 -0.047836162 0.06613209 0.0073748333 -0.0220183 -0.04434298 0.13328893 0.11024227
-0.057765782 0.12510994 -0.07065862 0.05966668 -0.14081243 0.14447436 0.107552335 -0.049887117
0.10198545 0.07471442 0.13166921 0.14432059 0.022412872 -0.059413433 0.10277812 0.009182065
0.033645917 -0.009708101 0.06576992 0.1094914 -0.12032223 0.11987776 0.060746603 -0.15833941
0.04586212 0.0926897 -0.051307555 -0.017286928 0.10890046 -0.013927322 -0.1049874 0.06600329
0.03194253 0.07197002 0.06840816 -0.0827369 -0.037098404 -0.059557565 -0.13810891 -0.0489516
-0.023868673 0.12536417 0.12603465 -0.04458043 -0.045135874 -0.05317871 0.023402436 0.019343477
-0.096737966 -0.018700775 -0.05671148 -0.092503875 -0.0030586342 0.1141168 0.12638529 0.048379
-0.07146526 0.047401495 -0.064168476 -0.122399494 0.10308588 -0.02034429 0.11596339 0.1396596
-0.14414491 0.15789814 -0.12320124 -0.0122792525 0.043552086 0.07667111 0.07047032 0.10462757
0.01750771 0.07215488 -0.051136695 0.105836816 -0.13173196 0.010329425 0.15517388 -0.066235095
0.005931487 -0.059758034 -0.07692252 0.12362918 -0.023841783 -0.11614039 0.06193198 0.078574166
0.07213017 -0.11217711 -0.068544485 0.12473334 0.014585867 0.005129622 -0.07638482 -0.13192265
-0.091287345 -0.03036115 -0.064291015 0.07627095 -0.13861628 -0.08899945 0.03426245 0.015876086
-0.11236559 0.02336675 0.0951125 0.10106734 0.06299504 -0.03648953 0.026249656 -0.033547208
0.10055597 0.12347381 0.1453767 -0.13553591 0.0022761135 0.038875807 0.090131864 0.027688136
-0.10916327 0.13244838 0.15545106 0.039060388 0.0029465843 -0.08186053 -0.15562887 -0.032669015
00000000: c6a0 00be 4565 4fbd 05e9 e63d 09e3 823d
00000010: 593c 96bd 21b4 aa3c f038 523d b83f f93d
00000020: 9e72 b5bd 230e 143e 0842 04be efa6 5cbc
00000030: 116a c53d 299e 0e39 43a9 0bbe edac 6abd
00000040: b93a 233d c5a4 eb3d 1f21 9fbc f65b a6bd
00000050: 3dab 03bc 8400 f9bd b5a5 76bc 1a01 0c3e
00000060: a9d8 db3d de90 8dbb 1945 34bc 2d4b 1bbe
00000070: 3879 b83c a2eb ef3a acf7 043e 2504 4abd
00000080: 2927 ac3d 606f b1bd eff5 b6bd 5225 ba3b
00000090: f468 6e3d ca24 b3bd 7735 9cbb a81a 25bd
000000a0: 2ed0 123e 3c2a 043c 991f 163e ccc2 5fbc
000000b0: 3c79 0dbc c981 113e c5b2 0dbe 9d1f 11bd
000000c0: b1f5 153e 21f9 8fbd e6e2 7fbd 304f 423d
000000d0: 871a eabd 9ef9 b73d f9e7 ddbd 9ecd f53d
000000e0: 3952 a53d d68b 73bd 7271 1cbe 4b74 4ebc
000000f0: 98f4 cd3d 3801 acbd 8012 c83d 1a83 eabc
00000100: 1126 1f3d fb40 ce3d 955e e73d 16c2 5f3d
00000110: 3c02 af3d 9a69 f53d d75c 06be 73de c83d
00000120: 3d89 a2bd 6816 bebd 4513 10be 18d4 d93d
00000130: 7c85 f6bd a31a 3ebc 53c6 8e3d 00d6 e4bc
00000140: 4f45 55bd 65e7 a5bd 2aaf d63d 8f39 cabd
00000150: 07cc 03be f1e4 843d d0b7 073d 7bf7 04bd
00000160: 0513 a0bd 1f53 eabd 7657 cabd 299c d2bd
00000170: 5b5d 94bb 9640 0d3e 8b02 cfbc 71f6 aebd
00000180: 90ad 0a3e aeed 6e3d 7b2d db3d b752 dbbc
00000190: 965d 90bc 71c6 36bd 78ff 8f3c 9701 6d3d
000001a0: 226c d63c 5d7f d7bd 3b35 ad3c 83d8 e03b
000001b0: 5236 3bbd b7eb f33d 3d8b 8d3c 308e 5cbd
000001c0: 2a37 01be 8c06 8e3d dc15 eebd 1bef a2bd
000001d0: 4629 0abe bbaa 05be 74d5 13be 678f d2bd
000001e0: 6ebc b6bd daef 43bd 4370 873d 96a8 f13b
000001f0: b95f b4bc fca0 35bd e57c 083e b3c6 e13d
00000200: d09b 6cbd d21c 003e 77b5 90bd 0c65 743d
00000210: 2231 10be 16f1 133e 6644 dc3d 6f56 4cbd
00000220: bfdd d03d e003 993d 4bd4 063e c7c8 133e
00000230: 339b b73c 805b 73bd 567d d23d 5f70 163c
00000240: 4dd0 093d ba0e 1fbc 61b2 863d 073d e03d
00000250: 806b f6bd 7982 f53d 6ed1 783d ba23 22be
00000260: ebd9 3b3d 19d4 bd3d df27 52bd 519d 8dbc
00000270: 3407 df3d 6c2f 64bc a203 d7bd bc2c 873d
00000280: 2cd6 023d 0565 933d 9419 8c3d f771 a9bd
00000290: 7ff4 17bd a2f2 73bd 6c6c 0dbe 7981 48bd
000002a0: 3c88 c3bc 775f 003e 3a0f 013e f899 36bd
000002b0: 65e0 38bd ebd1 59bd 77b6 bf3c 3676 9e3c
000002c0: 8e1e c6bd 5e32 99bc 4c4a 68bd ac72 bdbd
000002d0: 5e73 48bb 12b6 e93d 256b 013e 0f29 463d
000002e0: 615c 92bd 1228 423d c36a 83bd 96ac fabd
000002f0: b11e d33d 12a9 a6bc 377e ed3d ed02 0f3e
00000300: b99a 13be 0db0 213e ef50 fcbd eb2e 49bc
00000310: ac63 323d be05 9d3d be52 903d fb46 d63d
00000320: 546c 8f3c f0c5 933d b674 51bd f9c0 d83d
00000330: bee4 06be c03c 293c e7e5 1e3e 44a6 87bd
00000340: eb5c c23b d7c4 74bd 8e89 9dbd 4c31 fd3d
00000350: d84f c3bc 03db edbd 63ac 7d3d 7eeb a03d
00000360: fcb8 933d 1dbd e5bd 0d61 8cbd 3274 ff3d
00000370: 8ff9 6e3c 6316 a83b a56f 9cbd bb16 07be
00000380: dcf4 babd f2b7 f8bc 02ab 83bd f233 9c3d
00000390: 6df1 0dbe 5845 b6bd c856 0c3d 910e 823c
000003a0: ee1f e6bd a06b bf3c 58ca c23d 65fc ce3d
000003b0: 8b03 813d 0c76 15bd 8509 d73c cc68 09bd
000003c0: 4af0 cd3d d6df fc3d a1dd 143e edc9 0abe
000003d0: d92a 153b 3d3c 1f3d 0e97 b83d 3bd2 e23c
000003e0: fe90 dfbd 8ca0 073e 902e 1f3e c9fd 1f3d
000003f0: 7b1b 413b 7ea6 a7bd 2d5d 1fbe f2cf 05bd

transformer_encoder.layers.0.self_attn.in_proj_bias f4 [192]
0.0066720205 0.006716051 -0.0075781886 0.0066126096 0.003988607 -0.011888463 -0.0046420614 0.008312185
0.008725506 -0.007183712 -0.003504227 -0.007237191 -0.0002544777 0.008781014 -0.0063597457 0.0056209737
0.008204292 0.009535775 0.0074806586 -0.009148685 0.009072531 0.0056788833 0.008018557 -0.0076870015
-0.0020797364 -0.004339977 0.004766958 -0.004571477 -0.0066882838 -0.011587995 0.008460482 0.002493652
0.011502923 0.009705885 0.0074278642 0.00795071 -0.008269765 -0.007519214 0.005091637 0.0072004516
-0.008011234 0.008789273 -0.0071684844 -0.0062267324 -0.006130414 0.004440838 0.005807077 0.0069620707
-0.006297569 0.0077007967 -0.010514807 -0.0073865447 -0.0076060095 -0.006498559 -0.008545333 -0.0064681987
-0.007790666 -0.009384166 -0.0073910244 -0.010655026 -0.0016408896 -0.0088623995 -0.012259226 -0.007150335
3.1780417e-07 -1.5620859e-05 4.7679023e-08 1.0204955e-05 1.7861179e-05 1.6907054e-05 -1.2382509e-05 -5.3573026e-06
-5.535342e-05 -4.840665e-05 -2.7401025e-05 -2.8803694e-05 3.4794437e-05 -1.0450212e-05 -4.7551883e-05 9.8290184e-05
2.3027435e-05 -3.866302e-05 -2.830539e-06 5.068968e-05 -2.840492e-05 1.7448472e-05 1.856067e-05 3.0419922e-05
8.702945e-05 8.944285e-05 -0.00020445115 7.381457e-05 0.00010226637 2.5420755e-05 6.621129e-05 -3.962273e-05
0.00014149482 3.8408332e-05 1.9808598e-05 3.2589203e-05 1.1649048e-05 -0.00034145734 0.00013922417 -3.131828e-05
1.6032587e-05 -6.699471e-06 -1.1766801e-05 7.8045785e-05 -4.805462e-06 3.0976942e-05 6.4495296e-05 -1.2703306e-05
-2.3108929e-05 -2.900306e-05 8.4423795e-05 -9.970229e-05 -6.336694e-05 -1.4364352e-05 -8.236637e-05 5.5620556e-05
0.0001841131 -5.8620935e-06 0.00016188447 0.00010729902 0.00024399147 -0.00019328315 5.8254474e-05 0.00012082315
0.007925935 0.010018449 0.007812322 -0.006194225 -0.008103482 0.0077250353 -0.009808259 -0.008167919
-0.008166544 0.007868856 0.007378396 0.008221068 0.002447502 0.007647029 -0.0070805484 0.009262185
0.0060529187 0.0072909887 -0.007976969 0.0106664505 -0.007092626 0.009758386 0.006861204 -0.003117004
-0.008704139 -0.0012282166 0.00686495 -0.009318751 -0.008643961 -0.008690728 -0.007899724 0.011668495
0.009129611 0.007653854 0.008777936 0.0082763545 0.0068116547 -0.007920401 -0.0075709824 0.007972324
-0.0079372255 0.021181736 0.008439878 0.009139365 -0.007930631 -0.007664908 0.008160777 0.0080879
-0.0059362026 0.0067060227 -0.007568714 -0.0065970398 -0.0068901996 0.0064676367 0.008417147 -0.008089932
-0.008746674 -0.008451402 -0.009406424 -0.008701389 0.00805065 0.0072177863 0.0075916043 -0.0014220218
00000000: f7a0 da3b 5212 dc3b 7452 f8bb 97ae d83b
00000010: dcb2 823b d4c7 42bc 6f1c 98bb d52f 083c
00000020: 6df5 0e3c 5865 ebbb 2ca7 65bb f525 edbb
00000030: 6b6b 85b9 3ede 0f3c 6a65 d0bb 2530 b83b
00000040: 4b6b 063c f03b 1c3c 5020 f53b 5ee4 15bc
00000050: f4a4 143c ed15 ba3b 4460 033c 3ee3 fbbb
00000060: 304c 08bb 5e36 8ebb 2434 9c3b 54cc 95bb
00000070: 6429 dbbb 93db 3dbc d59d 0a3c 8a6c 233b
00000080: c276 3c3c 6f05 1f3c 7165 f33b b243 023c
00000090: e97d 07bc bd63 f6bb bfd7 a63b c4f1 eb3b
000000a0: 8d41 03bc e200 103c 9be5 eabb 9e09 ccbb
000000b0: a4e1 c8bb 7384 913b 4b49 be3b 1522 e43b
000000c0: d65b cebb f756 fc3b 4c46 2cbc d40a f2bb
000000d0: d53b f9bb ddf1 d4bb b901 0cbc 2ff3 d3bb
000000e0: d848 ffbb 0cc0 19bc 6830 f2bb 6b92 2ebc
000000f0: 1e13 d7ba 9933 11bc ecda 48bc 5b4d eabb
00000100: ac9e aa34 8a09 83b7 a4c7 4c33 f335 2b37
00000110: 97d4 9537 9fd3 8d37 79be 4fb7 e1c2 b3b6
00000120: 482b 68b8 3f08 4bb8 41db e5b7 769f f1b7
00000130: 3ef0 1138 5253 2fb7 7272 47b8 2421 ce38
00000140: 0a2b c137 1a2a 22b8 4af4 3db6 a19b 5438
00000150: 1a47 eeb7 4f5e 9237 bcb2 9b37 492e ff37
00000160: 9583 b638 4493 bb38 f061 56b9 e5cc 9a38
00000170: d777 d638 a83e d537 eada 8a38 9530 26b8
00000180: 3a5e 1439 a218 2138 a42a a637 64b0 0838
00000190: 4870 4337 a105 b3b9 b4fc 1139 bf5b 03b8
000001a0: b87d 8637 05cc e0b6 076a 45b7 83ac a338
000001b0: 9b3e a1b6 3ded 0138 a641 8738 4920 55b7
000001c0: 0cda c1b7 994b f3b7 ae0c b138 4217 d1b8
000001d0: dee3 84b8 6cfe 70b7 1cbc acb8 1e4a 6938
000001e0: 7c0e 4139 00b3 c4b6 88bf 2939 b905 e138
000001f0: f6d7 7f39 0dac 4ab9 4456 7438 6f62 fd38
00000200: c8db 013c 6c24 243c 82fe ff3b edf8 cabb
00000210: 78c4 04bc 4b22 fd3b d2b2 20bc bcd2 05bc
00000220: f8cc 05bc 60ec 003c 79c6 f13b a9b1 063c
00000230: 4566 203b ee93 fa3b f203 e8bb 6bc0 173c
00000240: 9057 c63b 3fe9 ee3b d5b1 02bc 56c2 2e3c
00000250: 4269 e8bb a3e1 1f3c f3d3 e03b a646 4cbb
00000260: ce9b 0ebc 1cfc a0ba 60f3 e03b adad 18bc
00000270: 669f 0dbc 8e63 0ebc d86d 01bc 372d 3f3c
00000280: 5d94 153c 2ecd fa3b 55d1 0f3c 8c99 073c
00000290: 4d34 df3b 92c4 01bc 0116 f8bb 5a9e 023c
000002a0: 230b 02bc 5285 ad3c 6a47 0a3c 46bd 153c
000002b0: 7aef 01bc e929 fbbb c8b4 053c 1c83 043c
000002c0: 7a84 c2bb 32be db3b fa02 f8bb fb2b d8bb
000002d0: 2fc7 e1bb 78ee d33b 13e8 093c a28b 04bc
000002e0: 364e 0fbc c077 0abc 671d 1abc 4590 0ebc
000002f0: e0e6 033c 2e83 ec3b fec2 f83b 2263 baba

transformer_encoder.layers.0.self_attn.out_proj.weight f4 [64, 64]
-0.08078322 -0.08973037 0.09826916 0.102027886 -0.009454566 -0.107720636 -0.10651979 -0.026977807
0.050524462 0.0792351 0.09364146 -0.004128912 0.023080837 0.09048187 -0.018816056 -0.03368659
0.035144255 0.012900711 0.08837438 0.06418329 0.04220927 0.114285365 0.041203905 0.0041677672
-0.085233346 -0.051987123 -0.10574956 -0.114012755 0.090540804 -0.012376729 0.06503627 0.0477317
0.009130812 0.119600356 0.09729746 0.050315477 0.021170555 -0.08689992 -0.1011121 0.061516695
0.07676303 0.12072759 -0.064315386 -0.047886275 -0.11941918 0.010988905 -0.041434158 0.007108539
0.066894785 -0.08554106 -0.06370606 -0.050649617 0.081123374 0.009521325 0.11399974 -0.09827044
0.015417269 0.06944958 -0.11295741 -0.04745502 0.038687088 0.055457573 0.12925512 0.015850237
0.086675815 -0.09143287 -0.020669367 -0.10425336 0.058790192 -0.017231407 0.042827677 -0.04234451
-0.05456027 0.020967897 -0.11586206 0.04036899 -0.049894933 -0.13433963 -0.053210676 0.12119043
0.12430411 0.028847048 0.051774308 0.02280351 0.042305753 0.113150425 0.01695239 0.028675985
0.066416 -0.070003144 0.06937005 -0.00015717544 0.14231081 0.031799488 0.08306121 -0.016845228
-0.10034095 -0.085699655 0.037186194 -0.062133588 0.019984743 0.059554603 0.047585566 -0.06313319
0.05466279 -0.03494979 -0.115861155 0.063903436 -0.057015456 0.06024899 0.09425586 -0.061787445
-0.03586187 0.07201139 -0.117379986 -0.045741923 -0.12432027 0.037840094 0.041393764 -0.009317815
0.091645315 0.030244874 -0.09270769 0.031884234 -0.06279278 0.044452973 -0.0028062668 -0.09238788
0.04015928 0.1200583 0.01928262 -0.04150441 -0.013405153 0.011121611 0.04543772 -0.120671466
-0.03505109 -0.017556382 -0.07489864 0.11762822 -0.06869509 -0.068015724 0.032971468 0.083614126
-0.046508163 0.06494499 0.053441823 0.09966408 -0.034903105 0.12923367 0.020694124 -0.030138772
-0.008555114 0.024361534 0.12779643 0.021665722 -0.11531872 -0.1260732 0.045869436 0.1054308
0.08632085 -0.07035181 0.13233139 -0.02922129 0.09938465 0.08800399 0.0074567823 -0.04417857
-0.038249403 0.097077265 -0.00782068 0.039534893 -0.12373349 0.068574056 -0.015774408 0.09025894
-0.019896049 -0.021860573 0.016060388 -0.057029743 -0.0488851 -0.01588118 0.07727962 -0.11356434
-0.09065624 -0.04854983 -0.04684681 0.09689058 -0.11605496 0.014488033 0.038753357 0.05398795
-0.010659558 -0.01789426 -0.026076391 0.03317816 0.050563976 0.035699673 0.093744956 -0.0006826661
-0.054729998 0.036724072 -0.01547446 0.11372563 -0.10965671 -0.103475645 -0.024790188 -0.09950064
0.043022383 -0.12721232 0.096911736 0.019694397 -0.061201602 0.053451177 0.008561872 0.0034940168
0.037193477 0.058985427 0.023065085 -0.005654269 0.07757876 -0.08062788 0.009716442 0.039175395
0.06259449 -0.033022996 -0.040314306 -0.10201677 0.10866698 0.08811681 0.080599956 0.055294618
0.11838067 -0.08650004 0.005977091 0.06312211 0.081730545 0.09472522 0.07304504 0.06279732
-0.049267247 0.10892058 0.068017595 0.009938521 -0.037165012 0.0068869125 -0.07807701 0.021906987
-0.013276151 -0.10817713 -0.05355937 -0.024011739 -0.13128665 0.0048697363 0.08901899 0.046128634
00000000: ac71 a5bd 8ec4 b7bd 5741 c93d fff3 d03d
00000010: 53e7 1abc a39c dcbd 0c27 dabd 9000 ddbc
00000020: bdf2 4e3d 0346 a23d 18c7 bf3d d34b 87bb
00000030: 0614 bd3c 8f4e b93d 2124 9abc f3fa 09bd
00000040: 6cf3 0f3d 815d 533c a0fd b43d 8772 833d
00000050: a1e3 2c3d 720e ea3d 6dc5 283d c491 883b
00000060: d28e aebd 73f0 54bd 3a93 d8bd 857f e9bd
00000070: 756d b93d c4c7 4abc bc31 853d 5182 433d
00000080: 6799 153c 08f1 f43d e443 c73d 9a17 4e3d
00000090: df6d ad3c 96f8 b1bd dc13 cfbd eef8 7b3d
000000a0: ef35 9d3d 0740 f73d c9b7 83bd 6624 44bd
000000b0: 0b92 f4bd cf0a 343c ddb6 29bd bfee e83b
000000c0: 2200 893d 2730 afbd 5378 82bd f975 4fbd
000000d0: 0324 a63d 55ff 1b3c b278 e93d 0342 c9bd
000000e0: b798 7c3c 953b 8e3d 3756 e7bd 3260 42bd
000000f0: 5a76 1e3d 7b27 633d 745b 043e 5bd8 813c
00000100: 1783 b13d 2841 bbbd ce52 a9bc c982 d5bd
00000110: fccd 703d e128 8dbc 136c 2f3d 7071 2dbd
00000120: 977a 5fbd dec4 ab3c 1649 edbd f459 253d
00000130: a15e 4cbd 5490 09be 70f3 59bd b032 f83d
00000140: 2793 fe3d a550 ec3c 4c11 543d 6dce ba3c
00000150: cc48 2d3d 69bb e73d bddf 8a3c e6e9 ea3c
00000160: 1d05 883d cf5d 8fbd e311 8e3d 76cf 24b9
00000170: edb9 113e 2e40 023d ff1b aa3d 01ff 89bc
00000180: 8e7f cdbd 4d83 afbd 8d50 183d ca7f 7ebd
00000190: 0bb7 a33c 87ef 733d 15e9 423d f94b 81bd
000001a0: 17e6 5f3d 8327 0fbd 9d48 edbd cedf 823d
000001b0: 0a89 69bd a5c7 763d 3709 c13d d514 7dbd
000001c0: e5e3 12bd b57a 933d eb64 f0bd e25b 3bbd
000001d0: a09b febd 37fe 1a3d 828c 293d c0a9 18bc
000001e0: 8ab0 bb3d 19c4 f73c 88dd bdbd 0b99 023d
000001f0: 8099 80bd 5214 363d 58e9 37bb db35 bdbd
00000200: 0f7e 243d 20e1 f53d 96f6 9d3c 8700 2abd
00000210: 49a1 5bbc 6b37 363c e71c 3a3d 9a22 f7bd
00000220: bb91 0fbd 67d2 8fbc 7564 99bd 10e7 f03d
00000230: 03b0 8cbd d44b 8bbd 170d 073d e23d ab3d
00000240: 587f 3ebd e101 853d d0e5 5a3d ae1c cc3d
00000250: 8ff6 0ebd d555 043e b986 a93c 96e5 f6bc
00000260: c02a 0cbc d791 c73c 11dd 023e 507c b13c
00000270: 392c ecbd 5519 01be 97e1 3b3d 1aec d73d
00000280: fcc8 b03d 9c14 90bd e181 073e 7d61 efbc
00000290: 2e8a cb3d 703b b43d 0658 f43b 97f4 34bd
000002a0: 68ab 1cbd 72d0 c63d 4f22 00bc 57ef 213d
000002b0: fc67 fdbd 8e70 8c3d 5539 81bc aed9 b83d
000002c0: 0afd a2bc f214 b3bc 1391 833c 0598 69bd
000002d0: be3b 48bd 4019 82bc c744 9e3d 6c94 e8bd
000002e0: fba9 b9bd 30dc 46bd 71e2 3fbd 926e c63d
000002f0: 39ae edbd 375f 6d3c d7bb 1e3d 7822 5d3d
00000300: 6da5 2ebc fc96 92bc 289e d5bc d3e5 073d
00000310: 2c1c 4f3d d239 123d 5bfd bf3d f2f4 32ba
00000320: 902c 60bd fb6b 163d 9788 7dbc fce8 e83d
00000330: b293 e0bd 0aeb d3bd cb14 cbbc fec6 cbbd
00000340: 3d38 303d f243 02be a979 c63d 2556 a13c
00000350: 88ae 7abd 9fef 5a3d 1847 0c3c e0fb 643b
00000360: 3058 183d b49a 713d fdf2 bc3c 7247 b9bb
00000370: 9de1 9e3d 3b20 a5bd b631 1f3c 6176 203d
00000380: 8a31 803d 1f43 07bd 9d20 25bd 2bee d0bd
00000390: cb8c de3d 9676 b43d 9711 a53d 9c7c 623d
000003a0: 9171 f23d ef26 b1bd 79db c33b 2a46 813d
000003b0: 5862 a73d 4cff c13d a398 953d e29b 803d
000003c0: 74cc 49bd c111 df3d cf4c 8b3d 2ed5 223c
000003d0: 573a 18bd 9cab e13b d7e6 9fbd 4876 b33c
000003e0: 3784 59bc f98b ddbd 1261 5bbd 44b4 c4bc
000003f0: 0270 06be 4f92 9f3b 974f b63d 61f1 3c3d

transformer_encoder.layers.0.self_attn.out_proj.bias f4 [64]
0.0095637785 -0.009111091 0.0089790905 -0.007373114 -0.0077450774 0.0058531007 -0.007742617 -0.0069801654
0.006078839 0.007988899 0.0074129514 0.0076857223 -0.0079772035 0.008969285 0.007766101 0.0071292287
0.008129462 -0.00858681 -0.0077937613 0.007283674 -0.0084705725 -0.0073984046 -0.007885905 0.0076446417
0.007973577 -0.0077513075 0.008334286 -0.007995255 -0.0077456967 0.00788902 -0.00030812187 0.009871691
0.0039411997 0.008620894 -0.0059097167 0.0074628936 0.0084244395 0.0074280044 -0.007962629 -0.007839112
-0.008892706 -0.0077301622 -0.0076965652 0.008119989 -0.0073012435 0.01344104 -0.008357806 0.0079752905
-0.008365431 -0.00844067 -0.008028382 0.008443819 0.0072971415 0.007954711 0.007323043 0.007662703
-0.0077878325 -0.010090983 0.008517293 0.0020743608 -0.008193062 -0.008080132 0.009317474 0.008117334
00000000: 65b1 1c3c af46 15bc 091d 133c 2a9a f1bb
00000010: 6bca fdbb 5ecb bf3b c7b5 fdbb dfb9 e4bb
00000020: ff30 c73b dfe3 023c 58e8 f23b 83d8 fb3b
00000030: d1b2 02bc e8f3 123c c77a fe3b 4e9c e93b
00000040: 6f31 053c b1af 0cbc cf62 ffbb e3ab ee3b
00000050: 28c8 0abc 516e f2bb e233 01bc e77f fa3b
00000060: 9ba3 023c aefe fdbb 878c 083c 88fe 02bc
00000070: 9dcf fdbb f340 013c 6b8b a1b9 e0bc 213c
00000080: 2e25 813b a63e 0d3c 4ca6 c1bb 4a8b f43b
00000090: a906 0a3c 9e66 f33b b075 02bc 9e6f 00bc
000000a0: b6b2 11bc 4d4d fdbb 7833 fcbb b409 053c
000000b0: 453f efbb cf37 5c3c 2eef 08bc cbaa 023c
000000c0: 290f 09bc bc4a 0abc 7a89 03bc f257 0a3c
000000d0: dc1c ef3b 7a54 023c 23f6 ef3b 6917 fb3b
000000e0: 1331 ffbb a654 25bc 1e8c 0b3c 00f2 073b
000000f0: 313c 06bc 8862 04bc 52a8 183c 91fe 043c

transformer_encoder.layers.0.linear1.weight f4 [256, 64]
-0.0746433 -0.08026446 -0.022774927 0.0146854585 -0.06605165 -0.05925772 0.08624605 0.06316501
0.07388358 0.13694972 0.0074604615 0.096213646 -0.010273442 -0.114090934 0.034441248 -0.068966106
-0.08425664 0.019484257 0.03224258 0.0062899957 -0.10427357 -0.09466586 0.0074729235 -0.074256554
-0.023126647 0.06626296 0.11095236 -0.039883148 -0.015603389 -0.036970843 0.1206192 -0.028982887
0.022560172 -0.040391512 -0.0744268 0.027988289 -0.09345447 0.022563502 -0.10942217 0.022140972
-0.080647424 -0.031180564 0.052130587 0.021974578 -0.0795007 -0.046876792 0.051564146 -0.036740974
-0.06978093 0.054838683 -0.0494893 0.032628886 -0.02198243 -0.1078437 -0.06778677 0.020170582
-0.039305303 -0.054293856 0.019423079 -0.13218738 -0.061690915 0.060905524 -0.0904656 0.09662557
-0.0908148 -0.06663339 0.03769733 -0.015219206 -0.033757977 0.032807533 -0.039914154 0.0025714783
-0.0852253 -0.031925872 0.017092124 0.06312545 -0.038890954 -0.077874504 -0.08356632 -0.07010859
0.100107305 0.066031635 -0.099190556 0.08562637 0.04485447 -0.118492566 0.10500009 0.07386611
0.050527673 0.08032279 0.041945655 0.123913765 -0.1202669 0.110685185 0.051203202 -0.088665426
0.03563218 -0.040272024 -0.068820946 -0.09392699 -0.031193288 0.08640312 0.07118771 -0.10990927
-0.04761967 -0.030824773 0.10618573 -0.06831603 -0.12002101 0.053975098 -0.113806605 0.13690472
-0.075270034 0.038904805 0.081567325 0.111227416 0.015748084 -0.073908046 0.045685053 -0.060062367
0.101389445 0.023659581 0.040543385 0.0030621942 -0.114906944 -0.096009314 0.04728485 -0.10859457
0.055503197 0.07068736 0.0937753 -0.0909942 0.04245615 -0.09471505 0.12866198 -0.003964826
0.04279508 -0.099972524 -0.10231891 -0.09244823 -0.041678976 0.10371296 0.017418226 0.027162166
-0.12434323 0.07686029 -0.114697844 0.07622165 -0.04524018 -0.058208697 0.06787699 0.095629945
-0.01852459 0.060245614 0.0025726974 -0.08582029 -0.10682497 -0.04902319 0.07443466 -0.07694129
0.06946004 -0.060396273 0.059994265 0.045910086 0.06948094 -0.06546783 -0.04558275 0.08428704
0.0037813226 0.072704144 0.028242242 0.09719951 0.08793827 0.059052225 -0.12346318 0.009054023
0.10985792 -0.052813813 0.10471915 0.11397151 0.089657016 -0.016548224 -0.045172606 0.015589267
0.11405067 -0.0909316 -0.061505347 -0.02652487 -0.10010865 0.06566154 0.060087334 0.043323793
-0.04035193 0.091819234 -0.051874205 -0.058754444 -0.030596906 0.069874294 0.021729747 0.065928005
0.087691486 -0.04536954 -0.110487066 0.10688966 0.0067523043 0.08790558 0.008786826 -0.12203763
-0.037950307 -0.0758862 0.043879643 -0.04204998 -0.11291148 -0.0479353 0.10946356 0.04792845
0.03099426 0.12091759 0.011543667 -0.09362728 -0.10631823 -0.002761244 0.10755164 0.10009278
0.05746958 0.091345035 0.08881552 -0.024553582 -0.072364464 -0.108476095 0.108242445 0.11162748
0.01055955 -0.13433361 -0.0348959 -0.098269194 0.0023502999 0.06549515 -0.041174136 -0.13837409
0.026077202 0.039927583 0.040842727 0.022124955 -0.083530255 -0.016138189 0.0032097225 0.013012406
-0.028814975 -0.1295043 -0.00043123862 -0.08506042 -0.004172872 0.042634994 0.032510504 0.07858952
00000000: 96de 98bd b161 a4bd 7c92 babc 479b 703c
00000010: 1646 87bd 39b8 72bd c5a1 b03d a85c 813d
00000020: 4650 973d 8c3c 0c3e e376 f43b a90b c53d
00000030: f051 28bc 82a8 e9bd 4412 0d3d 1a3e 8dbd
00000040: bf8e acbd 739d 9f3c cc10 043d 4f1c ce3b
00000050: 628d d5bd 2de0 c1bd 6ddf f43b d213 98bd
00000060: 1874 bdbc e0b4 873d fe3a e33d 835c 23bd
00000070: 5ba5 7fbc bd6e 17bd 3307 f73d 856d edbc
00000080: 1cd0 b83c 9271 25bd 146d 98bd b247 e53c
00000090: 0f65 bfbd 18d7 b83c bb18 e0bd fc60 b53c
000000a0: 7a2a a5bd 626e ffbc e286 553d 0804 b43c
000000b0: 43d1 a2bd e101 40bd ed34 533d b47d 16bd
000000c0: 4ee9 8ebd 879e 603d 4bb5 4abd dea5 053d
000000d0: 7f14 b4bc 28dd dcbd cad3 8abd c73c a53c
000000e0: 99fe 20bd 3c63 5ebd 261d 9f3c 215c 07be
000000f0: 9daf 7cbd 1278 793d 0746 b9bd a0e3 c53d
00000100: 1cfd b9bd 1677 88bd 8468 1a3d fa59 79bc
00000110: ce45 0abd 3161 063d 067d 23bd 3f86 283b
00000120: 9a8a aebd b4c4 02bd c804 8c3c ea47 813d
00000130: 1f4c 1fbd ab7c 9fbd d224 abbd 1895 8fbd
00000140: 0f05 cd3d 983b 873d 6b24 cbbd e15c af3d
00000150: 52b9 373d 3bac f2bd 4a0a d73d 1d47 973d
00000160: 1bf6 4e3d 4680 a43d 35cf 2b3d 80c6 fd3d
00000170: 7e4e f6bd eaae e23d 73ba 513d 3896 b5bd
00000180: 0cf3 113d 47f4 24bd fff1 8cbd cb5c c0bd
00000190: 1189 ffbc 1ef4 b03d ddca 913d 1d18 e1bd
000001a0: d80c 43bd 3c84 fcbc e777 d93d 46e9 8bbd
000001b0: 93cd f5bd fe14 5d3d 7013 e9bd c030 0c3e
000001c0: 2d27 9abd a55a 1f3d c50c a73d 33cb e33d
000001d0: 2002 813c 1a5d 97bd 4020 3b3d f503 76bd
000001e0: 45a5 cf3d bdd1 c13c d210 263d 18af 483b
000001f0: 5554 ebbd 88a0 c4bd c2ad 413d d466 debd
00000200: 5257 633d 89c4 903d 440d c03d 2b5b babd
00000210: 80e6 2d3d f7f9 c1bd f7bf 033e 5feb 81bb
00000220: e549 2f3d 65be ccbd 948c d1bd 7f55 bdbd
00000230: 93b7 2abd 7667 d43d abb0 8e3c 3183 de3c
00000240: aaa7 febd ed68 9d3d b4e6 eabd 191a 9c3d
00000250: c44d 39bd 3e6c 6ebd 1703 8b3d a2d9 c33d
00000260: e2c0 97bc 1bc4 763d b39a 283b 8cc2 afbd
00000270: 0dc7 dabd 8acc 48bd 3371 983d 6593 9dbd
00000280: 1141 8e3d 1562 77bd 8cbc 753d 370c 3c3d
00000290: 064c 8e3d ff13 86bd fab4 3abd af9e ac3d
000002a0: 11d0 773b e9e5 943d 465c e73c 8910 c73d
000002b0: fb18 b43d bfe0 713d 44da fcbd 5357 143c
000002c0: 30fd e03d 4c53 58bd fe76 d63d e569 e93d
000002d0: 199e b73d 2490 87bc e906 39bd 206a 7f3c
000002e0: 6693 e93d 593a babd 08ed 7bbd af4a d9bc
000002f0: c405 cdbd 8f79 863d 231e 763d 4a74 313d
00000300: 1148 25bd b90b bc3d 0c7a 54bd 80a8 70bd
00000310: 5da6 fabc 411a 8f3d 9502 b23c 4305 873d
00000320: 9897 b33d 69d5 39bd 0b47 e2bd f7e8 da3d
00000330: 6f42 dd3b d707 b43d 9ff6 0f3c ddee f9bd
00000340: c871 1bbd 396a 9bbd 24bb 333d 9a3c 2cbd
00000350: 223e e7bd ce57 44bd 6e2e e03d 9f50 443d
00000360: ade7 fd3c a4a3 f73d a621 3d3c a9bf bfbd
00000370: 5fbd d9bd fdf5 34bb 0944 dc3d 72fd cc3d
00000380: 3965 6b3d 1b13 bb3d e9e4 b53d 9824 c9bc
00000390: d233 94bd b728 debd 37ae dd3d f39c e43d
000003a0: f601 2d3c c08e 09be 01ef 0ebd 5c41 c9bd
000003b0: 7d07 1a3b 5222 863d 36a6 28bd f0b1 0dbe
000003c0: db9f d53c 1b8b 233d b44a 273d 653f b53c
000003d0: e911 abbd 3c34 84bc 355a 523b fd31 553c
000003e0: 620d ecbc c69c 04be de17 e2b9 2834 aebd
000003f0: 96bc 88bb 08a2 2e3d bc29 053d 8bf3 a03d
